chapter02-quickstart/cifar_net.pth (torch_old, 249582 bytes, 10 tensors)

conv1.weight f4 [6, 3, 5, 5]
-0.14568529 0.09774944 0.35287082 0.2844483 -0.10681269 -0.30479082 -0.49414662 0.0116993375
0.50639194 0.34487736 0.027220905 -0.34922388 -0.3918916 -0.0045125345 0.6232154 0.12266695
-0.012549416 -0.46853238 -0.3939196 0.025651958 -0.105793215 0.09288782 0.04978721 -0.24198554
-0.3212399 -0.28418347 -0.1478005 0.22098032 0.14689697 -0.16385445 -0.10680062 -0.406576
-0.06643407 0.29101625 0.19189076 0.19682045 -0.2115367 -0.5940393 0.055987053 0.3803698
0.26701605 0.20426099 -0.43056312 -0.50047374 -0.0430386 0.05593857 0.38736618 0.23023698
-0.20542455 -0.25848407 -0.064490326 0.10089497 0.3718047 0.17114855 -0.19419275 -0.049205862
-0.37884587 -0.08968466 0.4178969 0.18738556 0.23084326 -0.29532975 -0.37807032 -0.16326897
0.30597138 0.33364376 0.22934577 -0.2954425 -0.4378665 -0.103075854 0.3398568 0.47440234
0.3625211 -0.24029528 -0.21292299 0.10067013 0.10457831 0.091030225 0.14295644 -0.052758034
-0.032019164 -0.1518313 -0.21926035 -0.11819461 -0.12582295 -0.11672853 -0.050409358 -0.29550126
-0.2109219 -0.20785843 -0.04933344 -0.088711165 -0.3312542 -0.23707788 -0.046922073 -0.057610296
-0.083058536 -0.17253871 -0.11043118 -0.094168946 -0.35447928 -0.2596378 -0.054100357 0.065888904
-0.0015141254 -0.22905421 -0.010627347 -0.013757943 0.06139069 -0.043290265 -0.09236216 0.03998207
0.10270287 0.044421166 0.008401123 -0.009968456 -0.03195745 0.09447381 0.06333347 -0.072229385
-0.020609483 0.092529505 0.10557056 0.044328503 -0.112831086 -0.19678642 0.13259572 0.32909322
0.21321408 0.1237288 -0.07214662 0.29597783 0.41549352 0.29275557 0.2322831 0.024532188
0.2045087 0.3596219 0.26983756 0.17645867 0.024928762 0.3004795 0.38028017 0.17494845
0.039998528 -0.040681537 0.06255912 0.17733769 0.09421945 0.029917475 -0.08952689 0.13487299
0.03770006 -0.14067186 -0.09868315 0.35142267 -0.31601745 -0.27477154 0.08787121 0.101731114
0.5844606 -1.1587476 -0.36829728 0.9118897 -0.091346346 0.17816977 -1.0284493 0.38347372
0.9059712 -0.2434215 -0.030432252 -0.35355136 0.51891154 0.32993823 -0.28203413 0.015749382
0.04078166 0.08309278 -0.0064299908 0.016507799 0.55279934 -0.42420575 -0.41709954 0.22127733
0.09781144 0.6329591 -1.1629624 -0.34539387 0.77200395 0.01808048 0.35365668 -1.197784
0.21234773 0.80932 -0.21889427 0.033787996 -0.3620131 0.17430396 0.13894841 -0.16936195
-0.29264075 -0.020513685 -0.041836876 -0.019806651 -0.027600544 0.29440272 -0.29121286 -0.17625691
0.12477116 0.11356823 0.6425202 -0.8959277 -0.15500596 0.75279236 -0.124981865 0.17559454
-0.8863398 0.31153283 0.7031431 -0.25354972 -0.01316867 -0.12297695 0.47808036 0.12086051
-0.3069453 0.1847065 0.27381358 0.5208846 0.3828959 0.26170543 0.30795506 0.2894859
0.26083374 0.23591605 0.09948195 0.316591 0.10082297 0.12923713 0.011163131 0.09073073
0.29397848 -0.029762922 -0.135482 -0.07602233 0.04740374 -0.058313977 -0.029623752 -0.19445267
-0.060217775 -0.17910181 -0.23121102 -0.21108665 -0.3036362 -0.3894792 -0.4887542 -0.016559053
00000000: 862e 15be dc30 c83d 7cab b43e 35a3 913e
00000010: 9dc0 dabd 8b0d 9cbe c900 fdbe 94ae 3f3c
00000020: e7a2 013f c493 b03e 60fe de3c 79cd b2be
00000030: 04a6 c8be e2dd 93bb 0b8b 1f3f cf38 fb3d
00000040: 119c 4dbc 7ae3 efbe d4af c9be 0e24 d23c
00000050: 1daa d8bd f83b be3d aced 4b3d 0fcb 77be
00000060: 8e79 a4be 7f80 91be 0459 17be aa48 623e
00000070: 296c 163e 76c9 27be 49ba dabd bb2a d0be
00000080: 960e 88bd 1500 953e 037f 443e 4d8b 493e
00000090: 149d 58be f612 18bf ae52 653d d5bf c23e
000000a0: 54b6 883e cb29 513e c572 dcbe 0c1f 00bf
000000b0: 3e49 30bd d81f 653d dc54 c63e 3ec3 6b3e
000000c0: d05a 52be 0658 84be 8113 84bd 06a2 ce3d
000000d0: 305d be3e 9141 2f3e 77da 46be 168c 49bd
000000e0: 16f8 c1be 97ac b7bd 95f6 d53e 00e2 3f3e
000000f0: 2d62 6c3e 7635 97be 6f92 c1be fb2f 27be
00000100: 48a8 9c3e 5bd3 aa3e 9ed9 6a3e 3d44 97be
00000110: 0a30 e0be 6f19 d3bd b601 ae3e dde4 f23e
00000120: 5e9c b93e f70f 76be 7c08 5abe 242c ce3d
00000130: 272d d63d 0e6e ba3d 2c63 123e cf18 58bd
00000140: 8726 03bd aa79 1bbe c985 60be 0410 f2bd
00000150: bbd7 00be 5e0f efbd 0b7a 4ebd f14b 97be
00000160: e9fb 57be d7d8 54be dc11 4abd 33ae b5bd
00000170: 279a a9be 8bc4 72be 5c31 40bd c6f8 6bbd
00000180: 981a aabd fdad 30be be29 e2bd a6db c0bd
00000190: 4f7e b5be 3fef 84be 5698 5dbd c3f0 863d
000001a0: 9e75 c6ba 308d 6abe 531e 2ebc ff68 61bc
000001b0: ce74 7b3d 2251 31bd 5f28 bdbd 3dc4 233d
000001c0: e255 d23d f8f2 353d dda4 093c bc52 23bc
000001d0: d1e5 02bd 7c7b c13d fab4 813d 00ed 93bd
000001e0: 38d5 a8bc 1c80 bd3d 6135 d83d ce91 353d
000001f0: fc13 e7bd 6182 49be 2cc7 073e e87e a83e
00000200: cb54 5a3e 8665 fd3d 9bc1 93bd 688a 973e
00000210: 91bb d43e 0fe4 953e 9fdb 6d3e baf7 c83c
00000220: bb6a 513e 5d20 b83e 2628 8a3e 95b1 343e
00000230: 6737 cc3c 73d8 993e 15b4 c23e b025 333e
00000240: 7fd5 233d afa1 26bd ff1e 803d 0398 353e
00000250: 21f6 c03d 7e15 f53c e059 b7bd 251c 0a3e
00000260: 616b 1a3d 490c 10be 641a cabd aced b33e
00000270: 0acd a1be dbae 8cbe d2f5 b33d 6758 d03d
00000280: 369f 153f d751 94bf 7691 bcbe 9a71 693f
00000290: cb13 bbbd 2372 363e 3aa4 83bf ab56 c43e
000002a0: bbed 673f 7c43 79be 0f4d f9bc af04 b5be
000002b0: 63d7 043f aaed a83e c766 90be d904 813c
000002c0: ab0a 273d 8c2c aa3d acb2 d2bb 5d3b 873c
000002d0: 4284 0d3f 7f31 d9be 128e d5be 8696 623e
000002e0: 5d51 c83d 9c09 223f f4db 94bf 77d7 b0be
000002f0: 0da2 453f 841d 943c 7d12 b53e fc50 99bf
00000300: af71 593e 982f 4f3f d225 60be 4865 0a3d
00000310: c859 b9be bd7c 323e 7e48 0e3e 386d 2dbe
00000320: 02d5 95be 510c a8bc 255d 2bbd 8f41 a2bc
00000330: 891a e2bc f4bb 963e da19 95be b17c 34be
00000340: 0688 ff3d 7696 e83d 347c 243f 855b 65bf
00000350: e2b9 1ebe 00b7 403f 7ef6 ffbd 0ecf 333e
00000360: 2ae7 62bf 3b81 9f3e 3001 343f 45d1 81be
00000370: 68c1 57bc 57db fbbd f3c6 f43e b785 f73d
00000380: ef27 9dbe b323 3d3e 4b31 8c3e b158 053f
00000390: ee0a c43e 41fe 853e 49ac 9d3e 7f37 943e
000003a0: 008c 853e fa93 713e 31bd cb3d 3718 a23e
000003b0: 467c ce3d bd56 043e 91e5 363c 08d1 b93d
000003c0: 5984 963e 5fd1 f3bc cbbb 0abe 98b1 9bbd
000003d0: 6d2a 423d a3da 6ebd 83ad f2bc 9a1e 47be
000003e0: eaa6 76bd 7766 37be 95c2 6cbe 1927 58be
000003f0: 3476 9bbe d169 c7be fe3d fabe daa6 87bc

conv1.bias f4 [6]
-0.52899635 0.51093453 -0.3120412 -0.16819796 -0.2781093 -0.5609135
00000000: 4e6c 07bf 9bcc 023f ddc3 9fbe 163c 2cbe
00000010: 5864 8ebe 0798 0fbf

conv2.weight f4 [16, 6, 5, 5]
-0.031160682 -0.10740397 -0.14851032 -0.1610786 0.16650997 -0.04661613 -0.04494981 -0.10449962
-0.13616943 0.17829743 -0.23514089 -0.049094837 -0.00036870455 -0.13868552 -0.03592091 -0.090007976
-0.011677723 -0.2724968 -0.13366517 0.075991444 -0.14161913 -0.19667552 -0.0965842 0.0016077332
0.13714811 -0.2870515 -0.32049498 -0.31498125 -0.28885236 -0.01419144 -0.03440353 -0.10083291
-0.21492101 -0.040157128 0.145205 0.04371022 -0.05023069 -0.12751463 -0.14432445 -0.040069
-0.027209684 0.035506982 -0.05061584 -0.22223242 0.095493756 0.07716421 -0.13007449 -0.16357031
-0.0695342 0.051850364 -0.038865633 0.0030998937 -0.12461229 0.17786409 0.041047778 0.010853461
-0.11064961 0.3761232 0.0013887796 -0.4195882 -0.027099088 0.25222877 -0.028223768 -0.39777577
0.16891958 -0.051750958 -0.18855272 -0.31584224 0.19227108 0.40079513 0.043377463 0.053218596
0.1581211 -0.03451787 -0.2867019 -0.07454137 -0.10965243 -0.01185568 -0.19503297 -0.025782073
-0.06680027 -0.088336475 -0.19154179 -0.19877021 0.09674744 0.04218328 -0.17219505 -0.40542158
0.14825751 0.2493688 -0.23334724 -0.24390388 0.47025317 0.3235622 -0.22130266 0.084990956
0.5095035 0.22007178 -0.22530623 -0.2087919 0.026420709 -0.022055827 -0.11466102 -0.014087978
-0.13982251 -0.028777327 -0.0153536135 -0.010743348 -0.1934415 -0.29054454 -0.15889806 -0.045711372
-0.19584998 -0.16817777 -0.07936295 -0.2180572 -0.26907003 -0.09076702 0.32791057 0.10051188
-0.38699594 0.17090213 0.38698077 0.09802392 -0.08899669 -0.118290186 -0.1196511 0.12588663
0.15497303 0.1012563 -0.10591018 0.18402691 0.11810457 0.079556346 0.23578164 -0.124629706
-0.03253892 -0.045888957 0.25826088 0.083126195 -0.3589695 -0.11369156 0.4377672 0.24286805
-0.16653264 0.1102422 0.34778547 0.0390377 -0.25318822 -0.1568877 -0.09429281 -0.11134257
-0.12579642 -0.25140318 -0.28893328 0.062278293 -0.114913926 -0.1623362 -0.14460498 -0.10213553
0.10188755 -0.10121463 -0.12333553 -0.14251995 -0.0754176 0.057821468 -0.100609384 -0.054171354
-0.08157163 -0.13031645 0.08501089 -0.04729272 -0.049368106 -0.1432509 -0.00407395 0.5324888
0.35358828 0.24302325 0.24587053 0.18375953 0.15386902 0.090143606 -0.063563466 -0.15334
-0.1533527 0.11752493 0.043795694 -0.031939138 -0.09845502 -0.120234326 0.15908301 -0.0049392027
-0.008660133 -0.012105179 0.055382773 0.07801898 0.12455123 -0.07165423 0.015630124 0.048243105
-0.33866778 -0.32540914 -0.23297183 -0.24240716 -0.25051165 0.008539165 -0.10896658 -0.20930707
-0.13057901 -0.1422277 0.20647041 0.10562178 -0.03512129 -0.14001477 -0.2703766 0.23818988
0.039577827 -0.03949046 -0.11626626 -0.23261511 0.16196822 0.16914682 0.040496092 -0.10784545
-0.28031498 -0.21098812 0.100605555 0.1556294 0.053823795 0.007937072 -0.13136163 0.0042465576
0.12466943 0.21026714 0.057021204 -0.15757652 -0.08746804 0.019850817 0.1059503 0.10165596
0.025239246 -0.06184688 -0.10006875 -0.075892024 -0.029900672 0.15656829 0.15140975 -0.10440926
0.003096089 0.022496076 -0.23610374 -0.14568524 -0.15427823 -0.01908526 -0.04499139 -0.038305584
00000000: b044 ffbc 9df6 dbbd 1713 18be caf1 24be
00000010: 9781 2a3e 8ef0 3ebd 4b1d 38bd e603 d6bd
00000020: 0070 0bbe 9a93 363e c6c8 70be ab17 49bd
00000030: b04e c1b9 9403 0ebe ce21 13bd 1a56 b8bd
00000040: ec53 3fbc b384 8bbe 86df 08be 67a1 9b3d
00000050: 9b04 11be 4f65 49be f0cd c5bd 93ba d23a
00000060: 8e70 0c3e 6af8 92be eb17 a4be 3945 a1be
00000070: 75e4 93be 3783 68bc b7ea 0cbd 7c81 cebd
00000080: 4114 5cbe cd7b 24bd 9fb0 143e 7d09 333d
00000090: b2be 4dbd 3293 02be cac9 13be 641f 24bd
000000a0: d8e6 debc c56f 113d 8e52 4fbd e590 63be
000000b0: 3b92 c33d 4508 9e3d 3f32 05be fa7e 27be
000000c0: f267 8ebd 0c61 543d 9231 1fbd 9627 4b3b
000000d0: ba34 ffbd 0122 363e b721 283d b7d2 313c
000000e0: 439c e2bd 3893 c03e b607 b63a 44d4 d6be
000000f0: e8fe ddbc 2124 813e 8835 e7bc 44a9 cbbe
00000100: 41f9 2c3e d0f8 53bd f713 41be 13b6 a1be
00000110: b6e2 443e 0535 cd3e 91ac 313d befb 593d
00000120: 7fea 213e 9c62 0dbd 97ca 92be 25a9 98bd
00000130: 7491 e0bd 533e 42bc b9b6 47be ed34 d3bc
00000140: 94ce 88bd c1e9 b4bd 8823 44be 6b8a 4bbe
00000150: 8623 c63d 60c8 2c3d e653 30be 6b93 cfbe
00000160: d1d0 173e 895a 7f3e 94f2 6ebe f0c1 79be
00000170: 06c5 f03e f2a9 a53e 2a9d 62be bd0f ae3d
00000180: d26e 023f 7f5a 613e adb6 66be 8bcd 55be
00000190: 3e70 d83c 6cae b4bc 66d3 eabd 43d1 66bc
000001a0: a22d 0fbe 6ebe ebbc b98d 7bbc de04 30bc
000001b0: 8715 46be 41c2 94be 2cb6 22be d93b 3bbd
000001c0: e68c 48be cb36 2cbe 0b89 a2bd 634a 5fbe
000001d0: 8cc3 89be 0fe4 b9bd e5e3 a73e 2cd9 cd3d
000001e0: 5524 c6be f800 2f3e 5822 c63e c4c0 c83d
000001f0: e643 b6bd 2042 f2bd a30b f5bd 6de8 003e
00000200: 40b1 1e3e 775f cf3d 70e7 d8bd 8d71 3c3e
00000210: cfe0 f13d 70ee a23d be70 713e dc3d ffbd
00000220: 8847 05bd 0ff6 3bbd c53a 843e 113e aa3d
00000230: daca b7be 1fd7 e8bd 0623 e03e 67b2 783e
00000240: 8887 2abe aac6 e13d f010 b23e ffe5 1f3d
00000250: e3a1 81be 2ba7 20be 971c c1bd 9307 e4bd
00000260: c7d0 00be ebb7 80be 10ef 93be 8617 7f3d
00000270: fe57 ebbd 763b 26be 5413 14be 6f2c d1bd
00000280: 6baa d03d 9e49 cfbd 5797 fcbd c0f0 11be
00000290: 8b74 9abd 34d6 6c3d 4b0c cebd c8e2 5dbd
000002a0: 070f a7bd ad71 05be 311a ae3d 03b6 41bd
000002b0: 3636 4abd 5db0 12be c57e 85bb 3051 083f
000002c0: 8609 b53e 16db 783e 7cc5 7b3e 752b 3c3e
000002d0: d78f 1d3e 369d b83d 902d 82bd 2905 1dbe
000002e0: 7d08 1dbe e9b0 f03d 1d63 333d 9dd2 02bd
000002f0: c9a2 c9bd 6a3d f6bd a8e6 223e 09d9 a1bb
00000300: 3be3 0dbc cd54 46bc 0cd9 623d 6ac8 9f3d
00000310: b714 ff3d 74bf 92bd bf0a 803c 909a 453d
00000320: dd65 adbe 079c a6be 2b90 6ebe 9539 78be
00000330: 1043 80be dbe7 0b3c df29 dfbd 9854 56be
00000340: 81b6 05be 23a4 11be fb6c 533e 3b50 d83d
00000350: 57db 0fbd 0860 0fbe cd6e 8abe 0ce8 733e
00000360: 5c1c 223d c0c0 21bd 011d eebd a832 6ebe
00000370: ffda 253e d334 2d3e 3bdf 253d 13de dcbd
00000380: 7285 8fbe 450d 58be 490a ce3d 505d 1f3e
00000390: 5776 5c3d 7e0a 023c aa83 06be b526 8b3b
000003a0: b052 ff3d 4550 573e 118f 693d bd5b 21be
000003b0: 7222 b3bd 2e9e a23c 79fc d83d 0031 d03d
000003c0: 89c2 ce3c 2753 7dbd d8f0 ccbd 476d 9bbd
000003d0: 41f2 f4bc 7053 203e 280b 1b3e 86d4 d5bd
000003e0: c1e7 4a3b b149 b83c 2ec5 71be 832e 15be
000003f0: 1dfb 1dbe b158 9cbc e448 38bd 51e6 1cbd

conv2.bias f4 [16]
0.6587932 0.6768195 0.30167517 -0.02408202 0.34591323 -1.0651494 0.84651804 -0.69088566
-0.19306962 1.4102111 -0.09444529 -0.20257483 0.12949657 0.33465624 -0.58940625 -0.57492363
00000000: aca6 283f 0b44 2d3f 2b75 9a3e a847 c5bc
00000010: 8a1b b13e d156 88bf 68b5 583f e2dd 30bf
00000020: 0bb4 45be cc81 b43f 886c c1bd c76f 4fbe
00000030: c09a 043e 1058 ab3e 54e3 16bf 322e 13bf

fc1.weight f4 [120, 400]
-0.093915746 -0.028071541 0.0328963 0.058157817 -0.00529434 -0.015857698 -0.027924335 0.020269563
0.03402184 -0.044386856 -0.058658443 -0.008421486 0.027613487 -0.05415984 0.021135565 -0.046997465
-0.004404362 -0.04986677 -0.0012442392 -0.04593288 0.0060801352 0.005889121 -0.055810697 -0.052461814
-0.014147947 0.020076543 -0.0032962821 -0.00718966 -0.071705036 0.01605548 -0.04334315 -0.030500513
-0.011310939 -0.030167041 -0.023710316 0.015554261 -0.054210797 -0.015816526 -0.0070722466 0.027472807
0.004431339 -0.009327 -0.06219219 -0.062303293 0.04367154 -0.026728183 0.040782575 -0.018863477
-0.033892486 -0.018115893 -0.073159456 -0.089573 0.062365454 0.013258496 0.04157941 -0.073665544
-0.049617022 0.034202147 -0.0035818426 -0.021900253 -0.0033969127 0.06653858 0.040377848 0.036271103
-0.011137241 -0.007894807 -0.03252549 -0.0005743403 0.00696045 -0.075430244 -0.061664782 -0.02004241
-0.02949434 -0.04486952 -0.019041168 -0.0028682977 0.017554287 -0.08757781 -0.012916886 0.00959174
-0.0012945146 -0.033070453 -0.039535224 0.0441402 0.010590258 0.08293636 0.05958005 -0.043644745
0.035262275 -0.025084833 0.117990434 0.0002925271 -0.034516905 0.061598558 -0.07216366 0.0885999
0.06436545 -0.096836865 0.03635017 -0.002717331 0.0020233442 -0.04308637 -0.042023435 0.016855966
0.013398427 -0.026237588 0.003953082 0.040133424 0.008905028 -0.007393751 0.040650405 -0.03605083
0.015181502 0.021736808 0.0045516547 -0.000769399 0.0073318337 -0.032706656 -0.062205277 -0.016891776
-0.008894857 0.019347979 -0.0385868 -0.015682602 -0.0696985 -0.06545703 -0.074506715 -0.040405247
0.032269463 0.13424581 -0.04612721 -0.014114436 -0.022089053 0.07059947 0.036771424 0.043316387
-0.032940757 0.06312748 0.006748383 -0.047436934 0.013280193 -0.04176795 -0.090307824 -0.008907205
0.057437558 0.06389932 0.05900686 0.03572923 0.039806087 -0.011878838 0.04609641 0.053644087
0.03388819 0.009910235 -0.013310261 0.0059994934 -0.0127459215 -0.008115023 0.008823483 -0.0010066911
-0.0057213693 -0.042109527 0.02410113 -0.057368554 -0.0050464054 -0.030574802 -0.0689419 0.022732254
-0.035002515 -0.04599358 -0.03627057 -0.05074255 -0.06897217 -0.05018433 -0.02069712 -0.054831218
-0.07349186 -0.049354415 -0.04424253 -0.092808984 -0.0017964918 0.044814374 0.025658192 0.061327666
-0.030258635 -0.03891735 -0.0036833908 0.04983359 0.0069935312 -0.006962461 0.03964393 -0.019200735
0.072859675 0.07292551 0.016939294 -0.02578572 -0.030150212 -0.03362487 0.024373185 0.025881248
-0.009772851 -0.019258328 -0.06357659 -0.06785653 -0.004338989 -0.014173412 0.0116396295 -0.010464377
-0.04379437 0.0007487417 -0.059147034 0.024484027 0.05161148 0.07188601 0.049195945 -0.04327642
0.04846717 -0.012466728 0.030869413 0.0013786753 0.00084031495 0.019926324 0.0019378898 -0.014098457
-0.03892375 0.041477643 -0.008191066 0.034916133 0.073782444 0.05424925 0.004542743 0.048726007
0.026632978 0.015530871 0.038909987 0.03739595 0.030589972 0.041205205 0.009700318 0.018522851
-0.0033419947 0.0017124773 -0.042434298 -0.0643218 0.04257348 0.098974645 -0.0038548254 -0.0032983867
-0.005854864 0.051021352 -0.028112939 -0.0035683012 0.053907175 0.018289315 -0.047690276 0.032021284
00000000: e656 c0bd 4af6 e5bc 45be 063d e436 6e3d
00000010: 257c adbb 01e8 81bc 93c1 e4bc 5b0c a63c
00000020: 7c5a 0b3d fece 35bd d643 70bd 46fa 09bc
00000030: ae35 e23c b5d6 5dbd 7e24 ad3c 6a80 40bd
00000040: 7752 90bb 1941 4cbd bd15 a3ba 1e24 3cbd
00000050: df3b c73b 87f9 c03b c299 64bd 33e2 56bd
00000060: cacc 67bc 9077 a43c 7006 58bb 3d97 ebbb
00000070: 17da 92bd c886 833c 9688 31bd 36dc f9bc
00000080: 8451 39bc df20 f7bc 233c c2bc 4dd7 7e3c
00000090: 240c 5ebd a991 81bc 4ebe e7bb a70e e13c
000000a0: c434 913b 46d0 18bc 3dbd 7ebd bd31 7fbd
000000b0: eee0 323d 10f5 dabc a10b 273d 9487 9abc
000000c0: d9d2 0abd c867 94bc a0d4 95bd 0d72 b7bd
000000d0: eb72 7f3d 2a3a 593c 2c4f 2a3d f6dd 96bd
000000e0: 383b 4bbd 8d17 0c3d 59bd 6abb 2968 b3bc
000000f0: bd9e 5ebb 6145 883d 3e63 253d 0291 143d
00000100: f978 36bc 3859 01bc 7339 05bd 538f 16ba
00000110: 7d14 e43b 2c7b 9abd 3694 7cbd fb2f a4bc
00000120: 1d9e f1bc 1ac9 37bd 39fc 9bbc 0dfa 3bbb
00000130: 02ce 8f3c ff5b b3bd 59a1 53bc ac26 1d3c
00000140: b4ac a9ba e274 07bd b0ef 21bd 5bcc 343d
00000150: c382 2d3c 8ada a93d 360a 743d d5c4 32bd
00000160: 2d6f 103d b57e cdbc f8a4 f13d 535e 9939
00000170: 9961 0dbd c54e 7c3d 8aca 93bd dd73 b53d
00000180: 08d2 833d 6852 c6bd eae3 143d 4015 32bb
00000190: 159a 043b 557b 30bd c420 2cbd 8615 8a3c
000001a0: 1385 5b3c 36f0 d6bc db88 813b f262 243d
000001b0: 65e6 113c 4747 f2bb 0a81 263d 09aa 13bd
000001c0: d6bb 783c 6411 b23c 0c26 953b 7eb1 49ba
000001d0: e13f f03b 6af7 05bd f6ca 7ebd 9f60 8abc
000001e0: bcbb 11bc a77f 9e3c 310d 1ebd cd78 80bc
000001f0: 16be 8ebd 560e 86bd fa96 98bd f97f 25bd
00000200: fc2c 043d bc77 093e e3ef 3cbd 3c40 67bc
00000210: 1af4 b4bc 7496 903d a29d 163d 866c 313d
00000220: e3ec 06bd fb48 813d 8a21 dd3b 3b4d 42bd
00000230: 2b95 593c df14 2bbd 4ff3 b8bd 87ef 11bc
00000240: a543 6b3d a6dd 823d 2db1 713d d058 123d
00000250: b50b 233d 759f 42bc 97cf 3c3d e7b9 5b3d
00000260: 58ce 0a3d 8a5e 223c 4813 5abc 6697 c43b
00000270: 45d4 50bc e0f4 04bc 5f90 103c f3f2 83ba
00000280: 537a bbbb 0a7b 2cbd bc6f c53c 4afb 6abd
00000290: 515c a5bb 0278 fabc 6931 8dbd fe38 ba3c
000002a0: cc5e 0fbd c463 3cbd 7390 14bd 6cd7 4fbd
000002b0: 4841 8dbd 168e 4dbd 028d a9bc b396 60bd
000002c0: e682 96bd db27 4abd a837 35bd a312 bebd
000002d0: 4378 ebba 478f 373d 2131 d23c b832 7b3d
000002e0: f5e0 f7bc cd67 1fbd 0b65 71bb 4e1e 4c3d
000002f0: fe29 e53b 5b25 e4bb ac61 223d dc4a 9dbc
00000300: 7437 953d f859 953d 46c4 8a3c 933c d3bc
00000310: 94fd f6bc 3bba 09bd 46aa c73c e904 d43c
00000320: 4f1e 20bc a4c3 9dbc 7134 82bd 5df8 8abd
00000330: 142e 8ebb 9937 68bc 25b4 3e3c c772 2bbc
00000340: ba61 33bd 3447 443a 2944 72bd ba92 c83c
00000350: 8f66 533d f938 933d b081 493d 9e42 31bd
00000360: 8385 463d 3f41 4cbc dae1 fc3c abb4 b43a
00000370: 9548 5c3a 883c a33c cb00 fe3a 37fd 66bc
00000380: 836e 1fbd 76e4 293d d233 06bc 3804 0f3d
00000390: 401b 973d 7634 5e3d 4adb 943b ec94 473d
000003a0: 672d da3c 3275 7e3c 1460 1f3d 7f2c 193d
000003b0: d297 fa3c cac6 283d 15ee 1e3c 3cbd 973c
000003c0: 5e05 5bbb 3475 e03a 96cf 2dbd 26bb 83bd
000003d0: 8861 2e3d 38b3 ca3d 3da1 7cbb bf29 58bb
000003e0: 29da bfbb c4fb 503d 1b4d e6bc 29da 69bb
000003f0: c5cd 5c3d 79d3 953c e156 43bd c028 033d

fc1.bias f4 [120]
0.016946444 -0.08523595 -0.032374565 -0.19877008 -0.054835122 -0.054208767 0.05968035 0.022569114
0.069488786 -0.0042869393 0.026911672 -0.028301623 -0.16906872 -0.06510522 0.09492278 0.057521183
0.012339126 0.071749605 0.28235784 0.07320757 0.22732973 0.1922262 0.0053230203 0.25132263
0.072894685 0.08205042 -0.021574885 0.007736422 -0.007484826 0.16216262 0.2725242 0.049598295
-0.16739371 0.018060092 0.023996715 -0.12367936 0.15004385 -0.12540366 0.107553326 -0.027584389
0.16880956 -0.050735492 0.096074626 0.003169974 -0.06030994 -0.12169899 -0.0075135315 0.30054235
0.16963656 0.08199963 -0.05082483 0.09921434 0.0101248035 -0.043602142 -0.06021422 0.04454395
-0.06422902 -0.052113317 -0.04608808 0.075359836 -0.0018032755 -0.10792334 0.085765846 0.02796367
0.14869729 0.1502216 -0.09009905 -0.009276159 -0.0142645445 0.08273051 -0.074152626 -0.0144813685
0.03193095 -0.080989376 -0.0073487777 -0.02756011 0.33894905 0.13886306 0.0397077 -0.056708753
0.20749521 0.14500284 0.16275589 -0.16618119 0.070798375 -0.018002445 -0.006226491 -0.0059570367
0.016517697 0.22242562 -0.02809157 0.033297714 -0.1142159 0.106870025 0.14238201 0.044029787
-0.01438159 0.098290876 0.15012684 0.17563626 0.10299355 0.14101249 -0.0028251845 0.11999082
-0.14077803 0.016827425 -0.09398029 -0.00031496704 -0.023212468 -0.05479933 0.19246972 0.106838666
0.004605684 0.04728486 0.234105 -0.20853895 0.01895849 0.04835906 0.0354923 -0.13717665
00000000: 45d3 8a3c 3090 aebd 319b 04bd 628a 4bbe
00000010: cb9a 60bd 030a 5ebd 6273 743d dde2 b83c
00000020: 2350 8e3d 7479 8cbb de75 dc3c ced8 e7bc
00000030: 5a20 2dbe e355 85bd e066 c23d 559b 6b3d
00000040: 0c2a 4a3c 75f1 923d 3591 903e daed 953d
00000050: 20c9 683e f2d6 443e bb6c ae3b 5cad 803e
00000060: cf49 953d 0d0a a83d d0bd b0bc d081 fd3b
00000070: 4543 f5bb f50d 263e 4b88 8b3e 9527 4b3d
00000080: 4269 2bbe c2f2 933c c294 c43c 9b4b fdbd
00000090: 18a5 193e d169 00be eb44 dc3d a8f8 e1bc
000000a0: 6adc 2c3e 05d0 4fbd c6c2 c43d 57bf 4f3b
000000b0: 8e07 77bd 523d f9bd 1234 f6bb b0e0 993e
000000c0: 35b5 2d3e 6cef a73d b22d 50bd e330 cb3d
000000d0: 81e2 253c 2998 32bd 30a3 76bd b873 363d
000000e0: 818a 83bd c674 55bd dbc6 3cbd 4256 9a3d
000000f0: e35b ecba e906 ddbd 01a6 af3d 1114 e53c
00000100: 1a44 183e b1d3 193e da85 b8bd 08fb 17bc
00000110: d6b5 69bc 9d6e a93d 55dd 97bd 4343 6dbc
00000120: 07ca 023d c2dd a5bd 04ce f0bb bdc5 e1bc
00000130: bb8a ad3e 1e32 0e3e 8ba4 223d 7047 68bd
00000140: a079 543e a07b 143e 7ba9 263e 672b 2abe
00000150: bdfe 903d dd79 93bc 9807 ccbb 3f33 c3bb
00000160: 1f50 873c 8bc3 633e 4b20 e6bc 2f63 083d
00000170: 07ea e9bd acde da3d 97cc 113e 9458 343d
00000180: c3a0 6bbc ba4c c93d daba 193e fed9 333e
00000190: 48ee d23d 9465 103e bb26 39bb bfbd f53d
000001a0: 1e28 10be abd9 893c bd78 c0bd 2922 a5b9
000001b0: 1328 bebc 4375 60bd c816 453e 3bce da3d
000001c0: 47eb 963b c5ad 413d 39b9 6f3e 3c8b 55be
000001d0: d64e 9b3c 2614 463d 6060 113d 0978 0cbe

fc2.weight f4 [84, 120]
-0.068891935 -0.005019957 0.060958754 -0.20904478 -0.043202974 -0.01940583 -0.065633245 0.099934734
0.03523603 -0.04377128 0.07315635 -0.06290177 -0.055645216 -0.04863024 -0.060409866 0.13005206
-0.017193917 0.01722289 0.05036665 -0.09724105 0.053458393 0.07356912 0.06779508 0.070552975
0.014714974 0.11453086 -0.03707899 -0.04053589 0.08731248 0.07401681 -0.008524803 0.043443877
-0.08615604 -0.02976147 -0.054755427 -0.066359065 -0.024256097 -0.014507564 -0.039911628 0.13173282
0.07535366 -0.1006812 0.07658073 -0.17421247 -0.06225036 0.057183824 -0.039104834 0.004127289
-0.038537003 -0.102075614 -0.046322186 -0.07057685 0.03716956 -0.010839139 -0.034049623 0.08516096
-0.079930425 0.10622275 -0.002417123 -0.0028222555 -0.034827948 -0.1446826 -0.007123877 -0.13683075
0.07669179 0.1928679 -0.050881412 0.19052859 -0.012371856 -0.016796267 -0.16743222 -0.0957671
-0.06998035 -0.17174566 -0.06860572 0.028797586 0.09689238 0.09691493 0.01804309 0.085165426
0.045244485 0.099016 0.117150195 -0.043207277 -0.100772895 0.14352223 0.07871073 -0.007703785
-0.020625124 0.044013698 0.10013123 -0.07092148 -0.027085468 0.06466639 -0.072153874 0.080074035
-0.0174422 -0.15350758 -0.07959326 -0.058964536 0.021081613 -0.041267604 -0.056510087 -0.14446796
-0.06222243 0.0048763794 -0.13588582 -0.0065588374 -0.029035376 -0.1220158 0.05806478 0.10980153
-0.03992811 0.14684331 0.088620655 -0.002187193 -0.045653734 0.09820718 -0.016925018 -0.10845524
0.06745243 0.039189387 0.051953953 0.029265754 0.08462204 -0.05243084 -0.13213906 -0.053669132
0.03818959 -0.015995393 -0.076386936 0.18391907 0.056446068 -0.062429484 0.03826823 -0.06376233
0.04053022 -0.18800606 0.10206061 -0.07020597 0.08804222 -0.095363446 -0.08270259 -0.13240595
-0.073448665 -0.093033515 -0.0869382 0.008899872 0.029234983 0.16386308 0.0817592 0.07799647
0.04356734 0.061274935 -0.09368574 0.024388159 0.010678022 -0.05960341 -0.044457283 -0.07594751
-0.033763196 0.12066943 0.024213376 -0.050353445 0.17617546 -0.004183669 -0.05873856 0.01124673
0.08329103 0.055086415 -0.045040507 -0.10663854 0.033891372 -0.0816044 -0.1854402 0.06033746
-0.050303698 0.059470076 -0.12967144 0.07584843 0.03571006 -0.04888257 -0.047194455 -0.07026838
0.13201809 -0.07290234 -0.047746584 -0.12951124 0.07960129 -0.004860434 -0.0022722164 -0.010616441
-0.08233413 0.03379367 -0.015664779 0.012173508 -0.06191342 0.09674894 -0.02299131 -0.046051834
0.045395713 -0.039288107 -0.018488284 -0.1366459 -0.030197056 -0.12805697 0.013020208 -0.07173282
-0.080759354 0.017496286 0.07932571 0.052877434 -0.18584934 -0.012201556 -0.018987624 -0.14431144
-0.0889524 0.012886628 0.046730116 0.079016075 0.13047704 0.003811221 -0.0064293128 -0.055370048
0.009726529 0.08505034 -0.18208705 -0.16546148 0.030228108 0.0472183 0.144808 -0.076285616
0.0069166063 -0.0017248334 0.0107292095 0.043357573 -0.007937005 -0.0887811 -0.12646401 0.0046756533
0.071574785 0.078723036 0.067386225 -0.059267327 0.24407169 0.06655841 -0.013461056 0.06312488
-0.08109691 0.11697166 -0.10135989 0.095528595 0.17636265 -0.061840456 0.036274154 -0.02587891
00000000: 3717 8dbd 747e a4bb e3af 793d d60f 56be
00000010: 9af5 30bd faf8 9ebc b96a 86bd 95aa cc3d
00000020: a853 103d 8449 33bd ffd2 953d a5d2 80bd
00000030: 3dec 63bd 8130 47bd 5670 77bd 5e2c 053e
00000040: 42da 8cbc 0517 8d3c 434d 4e3d 5126 c7bd
00000050: 30f7 5a3d 68ab 963d 26d8 8a3d 147e 903d
00000060: 1317 713c 288f ea3d 24e0 17bd f608 26bd
00000070: e3d0 b23d 2096 973d 9eab 0bbc 35f2 313d
00000080: 9472 b0bd 54ce f3bc 3a47 60bd 43e7 87bd
00000090: b9b4 c6bc 22b1 6dbc 607a 23bd f8e4 063e
000000a0: 0553 9a3d f231 cebd 5cd6 9c3d c164 32be
000000b0: 3cfa 7ebd 9639 6a3d 642c 20bd 363e 873b
000000c0: fad8 1dbd 050d d1bd 55bc 3dbd 988a 90bd
000000d0: 1c3f 183d a596 31bc 9e77 0bbd df68 ae3d
000000e0: 90b2 a3bd 508b d93d 9868 1ebb 97f5 38bb
000000f0: c0a7 0ebd ad27 14be 696f e9bb 5c1d 0cbe
00000100: 9610 9d3d 2a7f 453e 0769 50bd ed19 433e
00000110: 53b3 4abc 5398 89bc 5a73 2bbe 8b21 c4bd
00000120: dc51 8fbd 18de 2fbe 2881 8cbd eae8 eb3c
00000130: 836f c63d 567b c63d 1acf 933c 366b ae3d
00000140: 4852 393d e7c8 ca3d 71ec ef3d 1dfa 30bd
00000150: 0562 cebd 7ef7 123e 1733 a13d 0870 fcbb
00000160: 05f6 a8bc b547 343d 9a11 cd3d 483f 91bd
00000170: 58e2 ddbc d06f 843d 69c5 93bd dbfd a33d
00000180: f2e2 8ebc 1731 1dbe cb01 a3bd cc84 71bd
00000190: 59b3 ac3c 3808 29bd 1f77 67bd 69ef 13be
000001a0: f2dc 7ebd 09ca 9f3b a725 0bbe 84eb d6bb
000001b0: 99db edbc 6be3 f9bd 56d5 6d3d a0df e03d
000001c0: a88b 23bd 185e 163e bf7e b53d 0257 0fbb
000001d0: 69ff 3abd d920 c93d 56a6 8abc c81d debd
000001e0: 8024 8a3d 0d85 203d abcd 543d bcbe ef3c
000001f0: 524e ad3d b8c1 56bd 764f 07be 2ad4 5bbd
00000200: b06c 1c3d c508 83bc c170 9cbd 4855 3c3e
00000210: fe33 673d 0fb6 7fbd 26bf 1c3d d395 82bd
00000220: 0403 263d a984 40be 2705 d13d 26c8 8fbd
00000230: 7b4f b43d e94d c3bd fa5f a9bd 6d95 07be
00000240: 416c 96bd 5b88 bebd a80c b2bd c5d0 113c
00000250: 347e ef3c b9cb 273e 5e71 a73d 9dbc 9f3d
00000260: ab73 323d 6dfb 7a3d 4fde bfbd adc9 c73c
00000270: dff2 2e3c b522 74bd d718 36bd 5e8a 9bbd
00000280: 474b 0abd 8921 f73d 215b c63c 6a3f 4ebd
00000290: 5767 343e 2917 89bb d897 70bd 3444 383c
000002a0: 7d94 aa3d 4ba2 613d 657c 38bd 4f65 dabd
000002b0: aed1 0a3d 3520 a7bd 09e4 3dbe 6a24 773d
000002c0: 400b 4ebd e596 733d 97c8 04be 6c56 9b3d
000002d0: b644 123d 1739 48bd f94e 41bd dee8 8fbd
000002e0: c02f 073e d24d 95bd ec91 43bd 989e 04be
000002f0: 0006 a33d 4744 9fbb 77e9 14bb 95f0 2dbc
00000300: cc9e a8bd 3b6b 0a3d 6c53 80bc 6573 473c
00000310: ed98 7dbd 4f24 c63d 4658 bcbc d9a0 3cbd
00000320: dbf0 393d 91ec 20bd be74 97bc e7ec 0bbe
00000330: d15f f7bc 5e21 03be b652 553c a8e8 92bd
00000340: 2965 a5bd 5f54 8f3c 8575 a23d 0296 583d
00000350: 4a4f 3ebe 09e9 47bc ef8b 9bbc 61c6 13be
00000360: ad2c b6bd 6f22 533c 1468 3f3d 2ed3 a13d
00000370: c69b 053e aec5 793b fcac d2bb b4cb 62bd
00000380: 055c 1f3c df2e ae3d 0775 3abe bc6e 29be
00000390: f0a0 f73c fa67 413d 8c48 143e a23b 9cbd
000003a0: b3a4 e23b ce13 e2ba 91c9 2f3c b697 313d
000003b0: 360a 02bc ded2 b5bd c87f 01be 3936 993b
000003c0: cd95 923d 8b39 a13d ca01 8a3d 4cc2 72bd
000003d0: eeed 793e c74f 883d c38b 5cbc 9e47 813d
000003e0: 2316 a6bd d68e ef3d c695 cfbd 7fa4 c33d
000003f0: 6998 343e 6b4c 7dbd 3594 143d 0200 d4bc

fc2.bias f4 [84]
0.29999667 0.06133979 0.16116917 0.332703 0.23403226 -0.16009326 0.2716297 -0.021425763
0.15189765 0.099171706 0.21151903 0.2834124 0.0040279906 0.17350963 -0.059204534 0.2833314
0.22550835 0.7054088 0.16445938 -0.18122405 0.029365793 -0.06557858 -0.0734832 0.054662865
0.2004884 0.28587887 -0.060758397 0.039313726 -0.0016035183 0.12189097 0.1783342 0.19399197
0.2683395 0.5022767 -0.07299522 0.15508251 0.40003705 -0.045869578 0.18940814 -0.04027544
0.26873606 0.062260687 0.16487962 0.27539492 0.08923662 0.21583603 0.09018437 0.043461744
-0.019218814 0.060951516 -0.2162255 0.068634234 0.24308546 0.06883742 0.059787687 -0.10538676
0.29474673 0.09473282 0.067770235 0.13218032 -0.05693473 0.09765319 -0.02391929 0.23181768
0.25131547 -0.102319196 0.13458087 0.023482334 0.39868864 0.1489269 0.1415023 0.35250434
0.0017776783 -0.056130756 0.26074708 0.069169365 -0.044949826 0.027873076 -0.06301028 -0.06775985
-0.0088445535 -0.021337787 0.29420474 -0.014098313
00000000: 2a99 993e 6e3f 7b3d 8809 253e 0c58 aa3e
00000010: 27a6 6f3e 7def 23be 0c13 8b3e 1585 afbc
00000020: 0f8b 1b3e 891a cb3d 7298 583e 6e1b 913e
00000030: 3cfd 833b 82ac 313e 7480 72bd d010 913e
00000040: a9eb 663e ac95 343f 0a68 283e cc92 39be
00000050: 8890 f03c 104e 86bd 5c7e 96bd 2be6 5f3d
00000060: d54c 4d3e b75e 923e ccdd 78bd 6e07 213d
00000070: 252d d2ba f9a1 f93d 3e9d 363e d5a5 463e
00000080: cc63 893e 3595 003f 857e 95bd f3cd 1e3e
00000090: a8d1 cc3e bde1 3bbd 35f4 413e dcf7 24bd
000000a0: c697 893e 1005 7f3d 34d6 283e 9000 8d3e
000000b0: b0c1 b63d 1f04 5d3e 95b2 b83d f104 323d
000000c0: c670 9dbc 4ca8 793d 386a 5dbe 1b90 8c3d
000000d0: 65eb 783e a2fa 8c3d efe3 743d 03d5 d7bd
000000e0: 0be9 963e 4803 c23d 1fcb 8a3d 475a 073e
000000f0: 6434 69bd 65fe c73d 63f2 c3bc 9d61 6d3e
00000100: 6cac 803e ba8c d1bd 91cf 093e 065e c03c
00000110: eb20 cc3e 4b80 183e fbe5 103e 737b b43e
00000120: fc00 e93a 5de9 65bd a480 853e aba8 8d3d
00000130: 4f1d 38bd 1456 e43c 890b 81bd adc5 8abd
00000140: bfe8 10bc 95cc aebc 01a2 963e 9cfc 66bc

fc3.weight f4 [10, 84]
-0.06331724 -0.09472046 0.03753033 0.12643902 0.21928832 0.11002118 -0.01588857 -0.0028493407
0.09861974 0.17000471 -0.25427705 0.20501912 -0.062587455 0.08040499 0.28461766 -0.05799476
-0.09458751 -0.24509767 -0.07176354 0.09573607 0.0027090954 -0.08114228 0.06711023 0.17418744
0.012270854 -0.22263172 -0.25642604 -0.15159343 0.15195031 -0.25081676 -0.047796875 -0.17402479
0.26876265 -0.017774807 -0.02917387 -0.076529786 -0.17471181 0.07565389 0.24196638 0.0502728
-0.16640654 0.27403298 0.11377895 0.012873268 0.1708053 0.13182892 0.061375987 -0.049535777
0.010767374 0.13337436 0.08842631 0.035213176 0.0011375858 0.17559575 0.2285977 -0.022429733
-0.14577474 0.1397396 -0.04238302 -0.041438043 0.05738941 -0.13515346 0.19281301 -0.045424666
0.087786935 0.19370216 -0.05277589 -0.004563556 -0.15251923 -0.14867236 0.03704165 0.1447507
-0.08014896 -0.08713369 0.13407795 -0.03406114 0.18372916 0.13971181 -0.12118104 -0.06481513
0.0342575 -0.074132115 0.22226806 -0.21715619 -0.08660404 0.167554 0.20964569 -0.04768602
0.26020733 0.07769786 -0.112829 -0.10035509 -0.041467078 0.016122213 -0.11254161 0.1178086
0.09964187 0.092797145 0.24846245 -0.0368555 -0.20232375 -0.4486236 0.07433801 0.13980187
0.16821446 0.10914514 0.27293703 -0.24129836 -0.05278142 -0.018281536 0.14732869 0.15151235
0.031323735 0.061962113 -0.08275704 0.19046077 0.109259285 -0.2136445 0.01988919 0.13339542
0.049332153 -0.1364109 -0.25335062 -0.08844754 -0.017541569 -0.0023912948 -0.20266744 -0.12925228
-0.19098751 -0.23620604 -0.1281176 -0.08625101 -0.032880016 -0.026771594 0.25515696 -0.008213933
0.069792025 0.029163456 0.0537967 0.026375448 -0.4209294 0.35761994 0.23728229 0.07215005
0.20092778 -0.20567161 -0.13385125 -0.24901414 -0.08950188 -0.14181672 0.12790497 0.060691487
-0.26115635 -0.037497647 0.2241025 -0.28071553 0.10923759 0.04033113 0.16461132 -0.11675915
-0.07384022 -0.16925955 -0.103103906 -0.02102279 0.0005907097 0.06443472 -0.15245345 0.12897514
-0.03711282 -0.164185 -0.21344803 0.035955716 -0.19193628 -0.093018174 0.09084023 0.053859916
0.030710656 0.10906006 -0.023443433 0.0045935833 0.0009540983 -0.035981357 0.06397358 -0.2964594
-0.00096005644 0.15729319 0.023203705 0.26164094 -0.11600312 0.080194205 -0.02264709 0.27162704
-0.13284592 0.08194647 0.14880846 -0.06758032 0.022442177 -0.046873577 0.025891395 -0.09860483
-0.10439384 0.08666244 0.07838258 0.009753718 0.28828534 -0.05561879 0.22569622 -0.0062045655
-0.15359749 -0.17128286 -0.114180684 -0.0450678 0.08431301 -0.0939416 0.2217328 -0.028304229
0.06302959 -0.024450721 0.01243585 -0.037723288 0.1438264 0.1646312 0.18142557 0.027459573
0.31752664 -0.12802637 -0.17335102 0.053473726 0.052493077 0.14881843 -0.026706439 0.095350794
0.025544334 0.11586361 0.060613867 0.017404461 0.19395483 0.03543743 -0.09270373 -0.04147552
0.18065934 -0.06556719 -0.14269793 0.19129047 0.031063713 0.1267274 -0.0017031349 -0.055989057
0.16132386 0.021954173 -0.09978562 0.012553318 0.0882888 0.12918271 0.051757284 0.2717186
00000000: 78ac 81bd cdfc c1bd 67b9 193d 3b79 013e
00000010: 1e8d 603e c952 e13d bf28 82bc 01bc 3abb
00000020: 25f9 c93d b715 2e3e 9a30 82be 88f0 513e
00000030: da2d 80bd 5fab a43d 68b9 913e ea8b 6dbd
00000040: 19b7 c1bd e2fa 7abe c3f8 92bd 4611 c43d
00000050: 148b 313b ec2d a6bd 1771 893d 315e 323e
00000060: b10b 493c 92f9 63be 464a 83be 4f3b 1bbe
00000070: dd98 1b3e 0e6b 80be a8c6 43bd 8e33 32be
00000080: 429b 893e 799c 91bc 0afe eebc a6bb 9cbd
00000090: a7e7 32be 6df0 9a3d 09c6 773e daea 4d3d
000000a0: 7a66 2abe 0d4e 8c3e f004 e93d 66ea 523c
000000b0: 96e7 2e3e 29fe 063e 6365 7b3d 07e6 4abd
000000c0: a469 303c 4a93 083e da18 b53d b13b 103d
000000d0: 0c1b 953a 5fcf 333e 8415 6a3e 8fbe b7bc
000000e0: f945 15be e617 0f3e d199 2dbd f0ba 29bd
000000f0: 2811 6b3d ab65 0abe c670 453e 370f 3abd
00000100: a3c9 b33d dc59 463e 882b 58bd e289 95bb
00000110: 002e 1cbe 913d 18be fcb8 173d 8739 143e
00000120: 2325 a4bd 2673 b2bd bb4b 093e b283 0bbd
00000130: 7f23 3c3e 9d10 0f3e c42d f8bd cbbd 84bd
00000140: 9851 0c3d 94d2 97bd 3d9a 633e 315e 5ebe
00000150: 755d b1bd 4793 2b3e 5cad 563e 6b52 43bd
00000160: e539 853e 0e20 9f3d e412 e7bd f886 cdbd
00000170: 62d9 29bd bb12 843c 377c e6bd a345 f13d
00000180: 0911 cc3d 6e0c be3d f16c 7e3e cbf5 16bd
00000190: f52d 4fbe feb1 e5be 873e 983d 3928 0f3e
000001a0: 6940 2c3e 7d87 df3d 67be 8b3e eb16 77be
000001b0: 5531 58bd 29c3 95bc 55dd 163e 0e26 1b3e
000001c0: 514d 003d fccb 7d3d 867c a9bd 2608 433e
000001d0: 55c3 df3d a0c5 5abe a8ee a23c cf98 083e
000001e0: 8310 4a3d 4daf 0bbe 2cb7 81be fc23 b5bd
000001f0: 56b3 8fbc 45b7 1cbb 0e88 4fbe b65a 04be
00000200: 3b92 43be ffdf 71be 4331 03be 5fa4 b0bd
00000210: 32ad 06bd 1a50 dbbc efa3 823e bb93 06bc
00000220: 1fef 8e3d 33e8 ee3c ee59 5c3d 5311 d83c
00000230: 0f84 d7be f619 b73e 21fa 723e 68c3 933d
00000240: 03c0 4d3e 949b 52be 4d10 09be 90fd 7ebe
00000250: c34c b7bd 6738 11be 85f9 023e a397 783d
00000260: 49b6 85be 2297 19bd 207b 653e f2b9 8fbe
00000270: f5b7 df3d 4132 253d df8f 283e 6c1f efbd
00000280: 8b39 97bd 6052 2dbe 2428 d3bd fc37 acbc
00000290: dbd9 1a3a 5af6 833d c21c 1cbe 0f12 043e
000002a0: 9d03 18bd 1d20 28be 1f92 5abe 4d46 133d
000002b0: f28a 44be 5080 bebd 710a ba3d 379c 5c3d
000002c0: ea94 fb3c e15a df3d 710c c0bc c585 963b
000002d0: 741c 7a3a 3061 13bd 9504 833d 87c9 97be
000002e0: 4cac 7bba 7711 213e b215 be3c cdf5 853e
000002f0: 0b93 edbd dc3c a43d 6486 b9bc b312 8b3e
00000300: c308 08be 8dd3 a73d 3f61 183e 8d67 8abd
00000310: a8d8 b73c 82fe 3fbd 311a d43c 54f1 c9bd
00000320: 70cc d5bd 147c b13d 0c87 a03d 0fce 1f3c
00000330: 239a 933e 87d0 63bd e91c 673e ab4f cbbb
00000340: a948 1dbe c664 2fbe 90d7 e9bd 0399 38bd
00000350: 4dac ac3d 7464 c0bd ec0d 633e 45de e7bc
00000360: a815 813d e14c c8bc bcbf 4b3c bc83 1abd
00000370: 3a47 133e 1595 283e a0c7 393e e6f2 e03c
00000380: da92 a23e 5819 03be ee82 31be 4407 5b3d
00000390: fb02 573d dc63 183e 76c7 dabc 4747 c33d
000003a0: 5a42 d13c e649 ed3d 3f46 783d cd93 8e3c
000003b0: 189c 463e d726 113d 74db bdbd 3ce2 29bd
000003c0: c3fe 383e 1748 86bd 681f 12be a6e1 433e
000003d0: 5479 fe3c d4c4 013e b93b dfba c854 65bd
000003e0: 1532 253e 3dd9 b33c 675c ccbd 6fac 4d3c
000003f0: c2d0 b43d 7948 043e 72ff 533d b31e 8b3e

fc3.bias f4 [10]
-0.2805655 -0.5733807 -0.11973556 0.43191573 0.5341208 -0.016782025 0.041853145 -0.23551366
0.29089418 -0.17852537
00000000: 48a6 8fbe 14c9 12bf eb37 f5bd 0f24 dd3e
00000010: 24bc 083f 757a 89bc 346e 2b3d 7e2a 71be
00000020: 15f0 943e 5bcf 36be
